src/models/evaluator_model.pth (torch, 10264 bytes, 5 tensors)

stack.0.weight f4 [32, 40]
-0.06027685 0.26088712 0.12126639 -0.53383225 -0.76533777 -0.5446832 -0.4494532 -0.13024758
-0.026932437 0.7593324 -0.20294301 -0.51072025 -0.6646779 -1.2814053 0.26302192 0.14248332
0.06652504 -0.22036849 0.37396988 -0.56166595 -0.71173525 -0.9410539 -0.111016415 0.027884193
0.060484897 -0.8968467 -0.13929477 -0.44297284 -1.263854 -0.790915 0.030269662 -0.002716655
-0.034129314 -0.85002005 0.018929813 -0.9317085 -1.346051 -0.286676 -0.09467167 0.1339805
0.061979286 -0.67987734 -0.35653812 -1.4569249 -1.875322 -0.2578545 -1.4719243 -0.13017188
0.06729734 -0.8153588 -0.030451288 -1.2984533 -1.0738196 -0.81043154 -2.0381067 -0.10833825
-0.02239593 -0.7622666 -0.3489552 -1.2212579 -0.9655988 -0.84195715 -2.102873 0.15299918
-0.1310741 0.436713 -0.15401077 -2.449729 -0.2385977 -1.6781927 -1.4093399 0.02879234
0.040369414 0.14459416 0.0443136 -1.5101554 -0.38389912 -1.3312305 -1.6954921 -0.14420046
0.045753893 -0.16329919 -0.09919209 -0.7755619 -1.0298988 -1.51029 -0.5454708 0.06721406
-0.020002658 -1.001571 0.18462437 -1.029885 -1.8493645 -0.27227545 -1.0319904 -0.14140496
-0.04553208 0.81005645 -0.19970722 -1.3055047 -0.47804892 -1.1702188 -0.7556839 0.005987347
0.028944654 -0.025728652 0.45591986 -0.6143429 -1.4299755 -0.7963154 -1.0995095 -0.116400875
0.054366145 0.42173803 -0.2629911 -1.041189 -1.0702902 -1.4898007 -0.74786615 0.0008467376
-0.15927814 0.1733321 0.09584008 -0.99798024 -0.98667437 -0.8022061 -1.32367 -0.0403701
0.036899284 -0.081356205 0.2727471 -1.520484 -0.43428397 -0.6121844 -1.712794 -0.1458546
0.018166557 0.31624338 0.04026176 -1.0329573 -0.33595216 -1.467691 -1.6312221 0.09507158
0.08787017 0.28052318 0.08059663 -0.37239766 -0.9847481 -1.0993422 -1.394946 -0.13666573
0.04235884 0.28940186 0.14996465 -0.87536675 -0.52231765 -1.2404299 -1.6908704 -0.14292687
0.064088 -0.13035858 0.077042826 -0.33463684 -0.6361758 -0.74652493 -0.11410701 0.055984657
0.06580596 0.06601864 -0.30237862 -0.7404553 -0.28254828 -0.5800258 -0.119697645 0.089470066
-0.07830265 -0.77569824 0.5137043 0.013570247 -0.58968914 -0.7721635 -0.42864445 -0.14163968
0.005689539 -0.04846162 -0.6327138 -0.52457005 -0.46631607 -0.41283688 -0.5577338 -0.11144741
-0.05214338 1.0093962 0.22436073 -0.78625715 -0.386185 -0.030285377 -0.44161946 0.04659513
-0.1309339 -0.003563286 0.007985912 0.0032967688 -0.66024137 -0.43415487 -0.19034486 0.028884735
0.051843025 0.01716257 0.08958774 -0.029740637 -0.7842559 -0.27491 -0.13490681 0.04695785
0.077813745 0.0066129724 -0.00868327 -0.49846002 -0.2927699 -0.38678765 -0.61070454 0.08897653
0.08426556 0.0513627 -0.019646784 -0.6452585 -0.6066174 -0.06398654 -0.39232564 -0.14510542
0.04745845 0.10756214 0.08279532 -0.8803452 -0.32676825 -0.14506024 -0.5420691 0.11760713
-0.020085767 0.005973947 0.02077459 0.83878696 0.55109984 0.5497622 0.9987726 0.11918517
0.016611066 -0.127231 -0.0035076356 0.530032 0.9978275 0.26580995 1.373254 -0.09362973
00000000: dce4 76bd ff92 853e 835a f83d 3ba9 08bf
00000010: 2ded 43bf 5c70 0bbf bb1e e6be 9f5f 05be
00000020: 6aa1 dcbc 9c63 423f 4bd0 4fbe 90be 02bf
00000030: 5528 2abf 1705 a4bf cfaa 863e 26e7 113e
00000040: 483e 883d 47a8 61be fb78 bf3e 57c9 0fbf
00000050: 4834 36bf e9e8 70bf 935c e3bd 646d e43c
00000060: 03bf 773d bf97 65bf 4aa3 0ebe 56cd e2be
00000070: f8c5 a1bf 6879 4abf 15f8 f73c e809 32bb
00000080: 2ecb 0bbd ea9a 59bf b212 9b3c 7384 6ebf
00000090: 664b acbf 32c7 92be 38e3 c1bd 2f32 093e
000000a0: fedd 7d3d 710c 2ebf 2a8c b6be 847c babf
000000b0: 8d0a f0bf 8105 84be 0468 bcbf c74b 05be
000000c0: 30d3 893d 5bbb 50bf fb74 f9bc b833 a6bf
000000d0: ec72 89bf 7178 4fbf 5770 02c0 72e0 ddbd
000000e0: ab77 b7bc e723 43bf 42aa b2be 2e52 9cbf
000000f0: 7c31 77bf 818a 57bf 7995 06c0 d1ab 1c3e
00000100: 4a38 06be d998 df3e 00b5 1dbe 5cc8 1cc0
00000110: f552 74be 05cf d6bf 4065 b4bf eadd eb3c
00000120: 665a 253d 7e10 143e 2d82 353d c64c c1bf
00000130: 6d8e c4be c365 aabf e305 d9bf 49a9 13be
00000140: 6f68 3b3d e737 27be 3925 cbbd 3a8b 46bf
00000150: b9d3 83bf 2f51 c1bf f9a3 0bbf 86a7 893d
00000160: 9ddc a3bc 7b33 80bf 2c0e 3d3e 46d3 83bf
00000170: fab7 ecbf b067 8bbe 4318 84bf 76cc 10be
00000180: d97f 3abd dc5f 4f3f 0d80 4cbe c71a a7bf
00000190: d4c2 f4be bbc9 95bf 8074 41bf 8231 c43b
000001a0: 571d ed3c e5c4 d2bc 546e e93e 9445 1dbf
000001b0: 7009 b7bf 53db 4bbf babc 8cbf 9563 eebd
000001c0: 09af 5e3d 0cee d73e c5a6 86be ae45 85bf
000001d0: 45ff 88bf cab1 bebf 2874 3fbf 99f7 5d3a
000001e0: cf19 23be f87d 313e ce47 c43d a27b 7fbf
000001f0: b196 7cbf 615d 4dbf 056e a9bf 1e5b 25bd
00000200: b423 173d 159e a6bd 82a5 8b3e 389f c2bf
00000210: 785a debe 1eb8 1cbf d53c dbbf e95a 15be
00000220: 08d2 943c a7ea a13e 84e9 243d f237 84bf
00000230: ec01 acbe 4cdd bbbf e3cb d0bf e3b4 c23d
00000240: 47f5 b33d bca0 8f3e d90f a53d e8aa bebe
00000250: 7418 7cbf 3fb7 8cbf 978d b2bf 1af2 0bbe
00000260: 7780 2d3d 7b2c 943e 5590 193e 0918 60bf
00000270: 9cb6 05bf 68c6 9ebf 716e d8bf 6c5b 12be
00000280: 9240 833d b87c 05be a1c8 9d3d 8555 abbe
00000290: 6bdc 22bf 421c 3fbf f0b0 e9bd 2b50 653d
000002a0: 46c5 863d c834 873d 5fd1 9abe 7b8e 3dbf
000002b0: 2baa 90be 927c 14bf 0a24 f5bd 153c b73d
000002c0: 245d a0bd 2994 46bf 2082 033f be55 5e3c
000002d0: def5 16bf 82ac 45bf 4977 dbbe fe09 11be
000002e0: 506f ba3b b17f 46bd 88f9 21bf 394a 06bf
000002f0: fbc0 eebe 5b5f d3be a4c7 0ebf 8a3e e4bd
00000300: 4c94 55bd e533 813f d2be 653e 2648 49bf
00000310: 0aba c5be 0a19 f8bc f21b e2be 89da 3e3d
00000320: 8913 06be 0586 69bb 58d7 023c 9a0e 583b
00000330: 9405 29bf 8c49 debe c3e9 42be ae9f ec3c
00000340: 5a59 543d 8598 8c3c c779 b73d a3a2 f3bc
00000350: ffc4 48bf 01c1 8cbe 0325 0abe e056 403d
00000360: d05c 9f3d a2b1 d83b 4644 0ebc 2736 ffbe
00000370: f0e5 95be 0809 c6be 2257 1cbf 5439 b63d
00000380: 6c93 ac3d b261 523d 4bf2 a0bc a92f 25bf
00000390: 474b 1bbf 600b 83bd e8de c8be 8496 14be
000003a0: cb63 423d 8a49 dc3d 9890 a93d 4e5e 61bf
000003b0: 2b4e a7be ac8a 14be 0ac5 0abf 02dc f03d
000003c0: e88a a4bc 19c1 c33b 792f aa3c beba 563f
000003d0: e114 0d3f 37bd 0c3f 90af 7f3f 5b17 f43d
000003e0: ee13 883c d848 02be 5ce0 65bb 2db0 073f
000003f0: 9f71 7f3f 3e18 883e c9c6 af3f f2c0 bfbd

stack.0.bias f4 [32]
-1.1166581 -1.9314054 -1.6357718 -1.7474228 -0.57304764 -1.111741 1.2159079 -0.74401784
-1.8165957 -1.8851748 -0.6974878 -0.6131009 -1.3097066 -1.5597998 -0.98716813 -1.4166219
-0.53368396 -0.6734591 -1.3455318 -0.758032 -1.8056065 -1.8578641 -1.9837879 0.75351954
-0.9113537 -0.35744858 -0.6804821 -0.95397395 -0.82880616 -0.39026487 -0.38817084 -1.4562588
00000000: a7ee 8ebf 4b38 f7bf f860 d1bf 8dab dfbf
00000010: 40b3 12bf 874d 8ebf dfa2 9b3f f477 3ebf
00000020: 3586 e8bf 684d f1bf 8f8e 32bf 2ef4 1cbf
00000030: 77a4 a7bf 85a7 c7bf 0db7 7cbf de53 b5bf
00000040: 839f 08bf d167 2cbf 633a acbf 630e 42bf
00000050: 1d1e e7bf 7ece edbf c3ec fdbf a8e6 403f
00000060: 7a4e 69bf 8003 b7be 1334 2ebf a337 74bf
00000070: a42c 54bf ccd0 c7be 54be c6be b066 babf

stack.3.weight f4 [16, 32]
-0.18135348 -0.53421366 -0.8467137 -0.6403198 -0.16881263 -0.058680583 0.017309086 -0.30110627
-0.9682287 -0.028908225 -0.03433146 -0.16098836 -0.14422171 -0.4173899 0.04453703 -0.5132619
-0.6121613 -0.08153032 -1.0160975 -0.012558682 -0.56935406 -0.3770827 -0.411955 -0.015970433
-0.5984055 -0.15910268 -0.0154315885 -0.37359115 -0.95434606 -0.12097754 -0.19767584 -0.4510394
-0.24393481 -0.1819684 0.090305306 -0.65941536 0.19111876 -0.7672048 -1.1244395 0.2903619
-0.24599041 -0.9932699 -0.5449957 0.12755555 -0.73068804 -0.08487764 0.062219452 -0.17885315
0.0977492 0.29767624 -0.04723465 0.19703697 -0.16889687 -0.24889176 -0.0077816844 -0.9716558
0.1817106 0.13608563 0.29732013 0.24018873 -0.09965636 0.13580051 0.1734097 -0.063902795
-0.042672537 0.039079946 -0.47346967 0.027800314 -0.5992545 0.035288747 0.04338293 -0.44647908
0.07024952 -0.38419172 0.039753385 -0.5751965 -0.014476977 -0.021765567 -0.9930802 -0.064298324
-0.46125877 -1.3851584 -0.6860159 -0.7278867 -0.042489853 -0.0032023564 -0.116542734 0.005413066
-0.36268717 -0.94156843 -0.19074059 -1.1894503 -0.17815222 -0.42936343 -0.45523074 -0.08691445
0.06356252 -0.0467025 -0.0057127113 -0.12443648 -0.26886976 -0.57454115 0.02263544 -0.63025385
-0.055467743 -0.30665582 -0.52787584 -0.4729088 -0.39950722 0.06347232 -0.5877086 0.20807484
-0.44539413 -0.6980071 -0.5223122 0.13116881 0.0013400732 0.15350802 -0.17668298 -1.6943938
0.2352973 -0.5484299 -0.24512702 -0.82042366 0.21822982 -0.9421954 -1.0537872 0.08645879
-0.44326198 0.2750802 0.44181213 0.39039153 0.0037647672 -0.06907934 0.051578928 -0.20701925
-0.33901834 -0.05170959 -0.16720538 -0.11929122 -0.05752815 -0.44678846 0.029293124 -1.0681607
-0.057576247 0.023492217 -0.11146839 0.4121928 -0.3611327 0.21977259 -0.12033225 0.085192725
0.7672741 0.013898625 0.14830531 0.17848684 -1.7248677 -0.39645824 -0.32248434 0.4503312
0.3464398 0.4674674 -0.016724396 -0.2834641 0.089013435 -0.1432915 -0.094127566 0.1388075
-0.4399866 -0.20444995 -0.14192025 0.08392846 -0.15133546 0.7029116 0.087621614 -0.06824057
0.00692524 0.06818934 0.00980294 0.37659794 0.17603989 -0.26666242 -0.63013 -0.13364251
-0.3642343 0.099336624 0.20996338 0.10659383 -0.2396667 0.049878594 0.063956216 0.98382944
-0.058155335 -0.23879544 0.044204883 -0.90560347 -0.25440577 -0.42984927 -2.1591203 -0.14688936
-0.2184193 -0.8245689 -0.56050175 0.06972769 -0.9300895 -0.7214186 -1.0295745 -0.2729136
-0.038584583 -1.8055283 -0.06695888 0.17940727 -0.13647036 -0.27562764 -0.17461726 -2.3693202
-0.19566335 0.21124408 -0.36902806 0.519231 -0.25513813 -0.3849072 0.056107596 -0.5583525
-0.24347708 -0.4748265 -0.15928093 -0.46903566 -0.2414524 -0.93950593 -1.2496947 -0.43977883
-0.30879414 -1.2403957 -0.85681057 -0.07069769 -0.56061554 -0.38688934 0.4296031 -0.52250755
-0.20070288 -0.7210544 0.38647434 -0.45551792 -0.52962315 -0.63153684 -0.33096242 -1.4973909
-0.5354566 -0.20248024 -0.42592746 -0.3189328 -0.79072154 -0.18888868 -0.22772934 -0.26110792
00000000: bab4 39be 3ac2 08bf 3bc2 58bf 00ec 23bf
00000010: 38dd 2cbe 0d5b 70bd c9cb 8d3c 9a2a 9abe
00000020: d6dd 77bf f1d0 ecbc 259f 0cbd 22da 24be
00000030: dbae 13be 21b4 d5be 766c 363d 2265 03bf
00000040: 9ab6 1cbf 5ef9 a6bd 7c0f 82bf eec2 4dbc
00000050: 30c1 11bf fc10 c1be c4eb d2be 6dd4 82bc
00000060: 1a31 19bf d0eb 22be c6d4 7cbc 5747 bfbe
00000070: 0650 74bf 13c3 f7bd 896b 4abe a3ee e6be
00000080: 0cca 79be ed55 3abe fdf1 b83d 72cf 28bf
00000090: a3b4 433e 8967 44bf a2ed 8fbf 51aa 943e
000000a0: e9e4 7bbe f046 7ebf d784 0bbf ec9d 023e
000000b0: 5f0e 3bbf 54d4 adbd d3d9 7e3d 4825 37be
000000c0: bc30 c83d 0569 983e 1f79 41bd 0fc4 493e
000000d0: 4df3 2cbe 7bdd 7ebe 80fd febb 6fbe 78bf
000000e0: 5812 3a3e 085a 0b3e 583a 983e 09f4 753e
000000f0: a218 ccbd 4a0f 0b3e 5092 313e 78df 82bd
00000100: 66c9 2ebd 4b12 203d 9e6a f2be 7cbd e33c
00000110: be68 19bf ef8a 103d 4db2 313d e898 e4be
00000120: fbde 8f3d c7b4 c4be 72d4 223d 1440 13bf
00000130: d830 6dbc b44d b2bc 813a 7ebf d7ae 83bd
00000140: 1c2a ecbe df4c b1bf bd9e 2fbf c856 3abf
00000150: d709 2ebd a0de 51bb f5ad eebd 1760 b13b
00000160: 22b2 b9be a10a 71bf 8051 43be e83f 98bf
00000170: 896d 36be 86d5 dbbe 0114 e9be 3400 b2bd
00000180: 112d 823d 1f4b 3fbd b231 bbbb 8ed8 febd
00000190: 4ca9 89be 2115 13bf f56d b93c 5158 21bf
000001a0: 2532 63bd fe01 9dbe df22 07bf 1a21 f2be
000001b0: 368c ccbe c7fd 813d 1274 16bf 9211 553e
000001c0: b30a e4be 98b0 32bf 41b6 05bf 1e51 063e
000001d0: 65a5 af3a 3531 1d3e 62ec 34be e5e1 d8bf
000001e0: c7f1 703e e765 0cbf 9402 7bbe 4907 52bf
000001f0: a377 5f3e b833 71bf 80e2 86bf 4e11 b13d
00000200: 3cf3 e2be 50d7 8c3e 3335 e23e 66e1 c73e
00000210: 50ba 763b 7879 8dbd 6d44 533d dbfc 53be
00000220: d093 adbe 6fcd 53bd e337 2bbe f54e f4bd
00000230: a3a2 6bbd 75c1 e4be 22f8 ef3c 7db9 88bf
00000240: 12d5 6bbd c072 c03c 8a49 e4bd ef0a d33e
00000250: 63e6 b8be 110c 613e c170 f6bd 8679 ae3d
00000260: 136c 443f 0fb7 633c 59dd 173e 41c5 363e
00000270: 77c8 dcbf 93fc cabe ab1c a5be d091 e63e
00000280: 8f60 b13e e357 ef3e 9a01 89bc 3522 91be
00000290: ad4c b63d 02bb 12be f4c5 c0bd 8e23 0e3e
000002a0: ec45 e1be 545b 51be 8b53 11be afe2 ab3d
000002b0: aff7 1abe 04f2 333f f672 b33d b6c1 8bbd
000002c0: 20ed e23b daa6 8b3d 839c 203c 72d1 c03e
000002d0: cd43 343e fa87 88be 3350 21bf 95d9 08be
000002e0: eb7c babe 0071 cb3d a400 573e de4d da3d
000002f0: 306b 75be 7f4d 4c3d 7afb 823d 3fdc 7b3f
00000300: 4a34 6ebd cb86 74be 2e10 353d a1d5 67bf
00000310: 7941 82be 3415 dcbe 072f 0ac0 2a6a 16be
00000320: 4fa9 5fbe f316 53bf 0b7d 0fbf 64cd 8e3d
00000330: 581a 6ebf e4ae 38bf 19c9 83bf 55bb 8bbe
00000340: de0a 1ebd 8d1b e7bf bd21 89bd 8ab6 373e
00000350: e3be 0bbe 111f 8dbe dece 32be f1a2 17c0
00000360: f95b 48be 5e50 583e 3ff1 bcbe 53ec 043f
00000370: 77a1 82be 8e12 c5be 14d1 653d 30f0 0ebf
00000380: 0e52 79be 761c f3be 8a1a 23be 7125 f0be
00000390: 4c3f 77be 7683 70bf fff5 9fbf b12a e1be
000003a0: 441a 9ebe 49c5 9ebf f057 5bbf f3c9 90bd
000003b0: 8084 0fbf 5c16 c6be f0f4 db3e 0ec3 05bf
000003c0: 0e85 4dbe 0597 38bf f7df c53e a539 e9be
000003d0: 6295 07bf 66ac 21bf e873 a9be 81aa bfbf
000003e0: af13 09bf fb56 4fbe 2a13 dabe 294b a3be
000003f0: ba6c 4abf 096c 41be e131 69be f0af 85be

stack.3.bias f4 [16]
2.4385085 -5.7497497 3.897912 -0.5577654 1.3782313 3.4939191 -1.5453249 -2.9033298
4.460655 0.8063034 6.8469706 4.488075 -4.375824 3.7706199 1.0406286 3.89619
00000000: 8610 1c40 f3fd b7c0 6477 7940 b7c9 0ebf
00000010: e269 b03f 5f9c 5f40 35cd c5bf 28d0 39c0
00000020: b0bd 8e40 e669 4e3f 621a db40 4f9e 8f40
00000030: c006 8cc0 d651 7140 5133 853f 2d5b 7940

stack.5.weight f4 [1, 16]
-0.9752164 -0.34556085 -0.15447037 -0.17137852 0.17440638 0.18542734 -0.16181609 -0.08403564
-0.29052272 0.11415683 0.272513 -0.38035837 0.216824 -0.15746662 0.17127997 -0.43169826
00000000: c8a7 79bf 5aed b0be 7b2d 1ebe da7d 2fbe
00000010: 9697 323e aae0 3d3e 1eb3 25be e11a acbd
00000020: 65bf 94be 0ecb e93d d386 8b3e 55be c2be
00000030: 1c07 5e3e ee3e 21be 0464 2f3e 8e07 ddbe
