src/models/evaluator_model.pth (torch, 9560 bytes, 5 tensors)

stack.0.weight f4 [32, 35]
000000 ef 85 1f 3e 55 d9 91 3d 2d 53 ac bd 0e bf a8 bd
       0.15578435 0.07121531 -0.08414302 -0.08239566
000010 cd 81 e8 3d 53 4a 20 bd 0c 68 03 bd 3f d8 76 3e
       0.113528825 -0.03913338 -0.03208165 0.24105929
000020 81 56 1b 3b 3b 65 e4 3d 44 d2 31 3e 4d 69 a8 3e
       0.0023702683 0.11152121 0.17365366 0.32892838
000030 a2 91 0f 3e 65 d5 78 3e 82 0b 1a 3e 51 a7 82 3e
       0.14020398 0.24300154 0.15043452 0.25518277
000040 e9 6d 62 bd 17 07 cb 3d 53 24 63 3d 94 2a 10 3d
       -0.0552806 0.09913462 0.055454563 0.035196856
000050 5d 6e c0 3b cf d1 7f 3e 7f 94 de 3c 3a a2 2e bd
       0.0058725313 0.2498238 0.027170418 -0.04263518
000060 29 53 cd 3b 24 16 71 3d 07 e0 20 be c3 82 d9 3d
       0.006266017 0.058859006 -0.1571046 0.10620644
000070 e7 6a bb 3e 26 89 28 3e 66 cf 4a 3d 45 85 b1 bb
       0.36604998 0.16458568 0.049514197 -0.0054174983
000080 77 4b ae bd 19 3b 76 3e b9 2d 4b be 96 fc 63 bc
       -0.085104875 0.24045981 -0.1984166 -0.013915202
000090 c9 2e a4 bd d8 2c 25 be 8c 2a 22 3c 5e ae ca bd
       -0.08016736 -0.16130388 0.009897839 -0.09896539
0000a0 4e 59 23 3e 77 43 fb bd ff 69 8e 3d 6d e5 c8 3c
       0.15952036 -0.12268727 0.06953811 0.024523461
0000b0 b1 b5 cb bd a9 fd ad bb c7 7d 9a be 85 cd 87 3d
       -0.09946764 -0.0053097797 -0.30174085 0.066309966
0000c0 da a0 a8 bd 9a 83 a7 3d 38 83 ad 3d f9 bc 3e bd
       -0.08233805 0.08179398 0.084722936 -0.046566937
0000d0 8c 53 15 3e 9b e2 19 be 1c b4 86 bd 7c 46 2a be
       0.14582652 -0.1502785 -0.06577322 -0.1662845
0000e0 06 9a 82 bd 71 6f 89 3d f2 5a dc 3d 14 a0 a4 3c
       -0.06377034 0.06710709 0.10759534 0.020095862
0000f0 09 5e 12 bd 54 56 f7 3c 79 e1 09 be f8 e6 c5 bd
       -0.03573421 0.030192532 -0.13464917 -0.096631944
000100 a7 d2 b1 bd 0c d8 40 3e 2f df 15 be fd 46 d8 3d
       -0.08682757 0.18832415 -0.14635919 0.10560415
000110 a4 e3 ff 3c bd c9 de 3d 24 bf a6 bd 6a 86 21 be
       0.031236477 0.10878322 -0.08141926 -0.15773931
000120 1e d0 43 3e 33 3d c8 bd cc 0c 89 3d 54 8d 28 bd
       0.19122359 -0.09777298 0.06691894 -0.041150406
000130 0e 63 03 be bd e6 a7 bd dd b1 e0 3d eb b5 f6 bb
       -0.12830755 -0.08198307 0.10971425 -0.0075290105
000140 f5 56 37 3d a6 22 24 3c f7 60 d3 bd d4 52 71 3d
       0.044760663 0.010018026 -0.10321229 0.05891688
000150 69 2f 17 3d 9a 91 12 3e 4d c0 be 3d eb f3 b4 bd
       0.03691045 0.14313355 0.09314022 -0.08835586
000160 66 ad 0b 3e 10 2d ac bd f5 81 78 bd b8 02 db 3d
       0.13640365 -0.084070325 -0.06067081 0.10693878
000170 09 40 ec 3d 4c 1e 03 3d f0 b3 7f bd 16 2c 6b bd
       0.11535651 0.032011315 -0.06242746 -0.05741509
000180 4a ac 08 3c 40 f2 f0 3c fe 60 9b bd 66 58 d4 3d
       0.008341858 0.029412389 -0.07586859 0.10368423
000190 e6 1c a0 bc 26 23 55 bc 12 c4 4a 3d 66 bb 97 3d
       -0.01954503 -0.013008868 0.049503393 0.0740879
0001a0 10 3b e6 3d 08 4a 03 3e 1c 9c f9 3d a6 43 41 3e
       0.11241734 0.1282121 0.121879786 0.18873462
0001b0 01 51 16 be 5e 7d be bd 9c c1 53 3e 16 d7 cf bd
       -0.14679338 -0.09301256 0.20679325 -0.10148446
0001c0 32 b1 4e 3e 7e 99 95 3d 15 e4 79 bd 4c 7b c6 bd
       0.20184782 0.07304667 -0.06100853 -0.09691486
0001d0 f4 7c e1 bb 21 6c de 3d e8 5b 2a 3c a9 f7 5e bd
       -0.0068813507 0.10860468 0.010397889 -0.054435406
0001e0 d6 b3 4c bd fb bd 1e bd c6 db 80 bd a0 06 81 be
       -0.049976192 -0.0387554 -0.062919185 -0.25200367
0001f0 2c 3e 1e 3c 57 b5 02 3e 11 b1 b9 3d c6 23 06 3e
       0.009658378 0.12764488 0.09066976 0.13099584
000200 6f 9d 63 3e 88 02 1e bb e7 ff 0c be 94 3a a8 3e
       0.22228025 -0.0024110395 -0.13769494 0.32857192
000210 74 de 95 bd e6 07 30 3d 17 db 1d be 72 3d 3f 3e
       -0.0731782 0.042976283 -0.15415607 0.18675783
000220 3e de bd 3b 1c 35 fc bd 34 06 4b 3d a3 76 ff 3a
       0.0057943156 -0.12314817 0.049566463 0.0019490313
000230 87 dd e9 bd fe e5 4e 3c 48 8a dd 3d 6c 66 2c be
       -0.11419206 0.012628077 0.10817391 -0.16835946
000240 71 21 d7 3d 81 db 00 be 3d 6d 36 3e 23 c7 6d be
       0.10504425 -0.12583734 0.17815109 -0.23220496
000250 0b ba 0e 3e 3e 64 99 bd 50 9f ea bc cb e6 8c 3e
       0.13938157 -0.07489823 -0.02864042 0.2751983
000260 c7 f0 a9 3d 5e 94 06 3e 65 ae b1 bd 0a a3 a2 3d
       0.08297878 0.13142535 -0.08675841 0.079412535
000270 d7 d2 8c bd 12 e9 ca 3d f6 8a 62 3c 88 00 aa bd
       -0.06876152 0.09907736 0.013827076 -0.083008826
000280 60 11 52 3e 40 c4 aa bb 95 51 38 3e 24 de d4 3b
       0.2051444 -0.005211383 0.17999871 0.006496208
000290 e0 0c 67 3e 63 a8 cb 3d 1c 87 8d 3d 7f d4 6c 3e
       0.22563505 0.099442266 0.06910536 0.23127936
0002a0 74 46 a4 3d 0b d3 76 3e d7 fe 82 bc ee bf 27 3d
       0.0802125 0.24103944 -0.015990658 0.040954523
0002b0 f5 eb 84 3e 9b 6a d8 3d 23 8e 45 3e 1b cb ed 3a
       0.2596127 0.105672084 0.19292502 0.0018142195
0002c0 a8 49 27 3d c1 d3 f9 bd a0 79 0f 3c e9 81 21 3e
       0.04084173 -0.12198592 0.008757025 0.15772213
0002d0 8f 07 f8 bd 91 38 7d 3c d0 38 13 be 41 89 f8 bd
       -0.12110817 0.015455381 -0.14377141 -0.12135554
0002e0 da cd 0c 3e a8 4f fe bd 16 fc 01 be ab 29 b3 bd
       0.13750401 -0.12417537 -0.1269382 -0.08748182
0002f0 d2 2d 05 3e 29 b6 90 bd c6 25 8e bd 3d 6a 9f 3d
       0.1300576 -0.07065994 -0.069407985 0.07783935
000300 e1 ad dd 3d e1 e3 69 bd d1 af 84 bd 04 c5 6e 3d
       0.108241804 -0.057102088 -0.06478847 0.058293357
000310 fe db de 3d 62 78 c1 ba c3 ee 5e bc 36 f2 0f be
       0.10881804 -0.0014760608 -0.01360673 -0.1405724
000320 a2 7c a7 bc e7 dc 0c be 47 df 85 ba 49 29 72 3d
       -0.020445172 -0.13756143 -0.0010213637 0.059121404
000330 36 a2 ac 3d 03 98 b1 3d 91 68 99 3c df fa 0e 3e
       0.08429377 0.08671572 0.018726619 0.13962887
000340 12 3d d6 3d 0f 49 a1 3d eb 83 5a be 26 66 86 be
       0.10460867 0.07875263 -0.21339385 -0.26249808
000350 f6 cc 4a 3c 84 e0 48 3e f3 0f 1b 3e 7f 6d 9d bd
       0.012377968 0.19616896 0.15142803 -0.076869
000360 8e f3 32 3e cf 8b 29 be 5d da 1b be 9b 48 80 bc
       0.17475721 -0.16557239 -0.15220018 -0.015659621
000370 b5 ba 97 bc 7a c9 5c 3e 14 85 c0 bd 2e d5 8f 3e
       -0.018521646 0.21561232 -0.09400383 0.2809233
000380 e1 3b 0c be 69 05 a6 be 3e 9d b7 bc 53 a2 05 3d
       -0.13694717 -0.32426003 -0.022413846 0.032625508
000390 6b d2 87 3e f9 77 bc bd 7d 5d 42 3e 03 89 a7 3b
       0.26527724 -0.092025705 0.18980975 0.0051127686
0003a0 83 3e 9d be 7a a3 a9 bc 92 d0 8d 3c b4 4d 1c 3e
       -0.30711755 -0.020707835 0.017311368 0.15264016
0003b0 79 0c 3e 3d 23 88 b1 3e db 49 f1 bc 46 2f 68 be
       0.046398614 0.34674177 -0.029454162 -0.22674283
0003c0 58 54 1f 3c 17 43 0d 3e 9f 3b 9e 3d 1c d3 95 3e
       0.009724699 0.13795124 0.077262156 0.29262626
0003d0 97 42 7c 3c d4 cd fb bd 22 12 c1 bd cd 5a 21 be
       0.015396736 -0.12295118 -0.09427287 -0.15757294
0003e0 22 d3 72 3d 86 5b 6a 3e 13 5a ce bd 2f 5a 23 3e
       0.059283383 0.22886476 -0.10075774 0.15952371
0003f0 5e f1 35 be b2 40 8a 3d 30 af 8b 3d 17 29 2b 3e
       -0.17767856 0.06750621 0.06820524 0.16714893

stack.0.bias f4 [32]
000000 8e 8c eb 3d dc c6 19 bd ab 5e 28 3d c6 02 96 bb
       0.11501418 -0.037543163 0.041105907 -0.0045779673
000010 ba 83 05 3e ee bb 35 3e 8d 66 80 3e d3 37 3c 3e
       0.13038531 0.1774747 0.2507824 0.1838067
000020 7a 8c 0b be 2f 0e 83 3e 6b 4f 1a bb ea 6f d0 bc
       -0.13627806 0.2559676 -0.0023545872 -0.02544399
000030 b0 56 d0 bd 70 a8 94 bc 42 cd c8 3d 06 95 94 3d
       -0.10172784 -0.018146724 0.09804775 0.072549865
000040 59 96 94 3d 90 82 02 3e 06 dc 09 bc 61 18 32 3c
       0.07255239 0.12745118 -0.008414274 0.01087007
000050 1f a5 48 3e ae 1e 58 3d cd 93 41 3e 81 97 45 3e
       0.19594239 0.052763633 0.18904038 0.19296075
000060 bf 5c 53 3e 57 ea 84 bd 1c ee 15 3e d2 26 14 3e
       0.20640849 -0.06490009 0.14641613 0.14467934
000070 01 35 00 3d 40 f1 c0 bc 66 55 11 3e 4b 28 4a 3e
       0.03130055 -0.023552537 0.14192733 0.19741933

stack.2.weight f4 [16, 32]
000000 f8 ff 4b 3e 21 f2 ec bb 7c dd 78 bd 74 17 3c 3c
       0.19921863 -0.0072310125 -0.0607581 0.011480201
000010 dc 22 67 3e 19 c8 3e bc fa 12 47 3e bd c7 30 3e
       0.22571892 -0.011644387 0.19440833 0.17263694
000020 15 78 1a be 37 14 86 3e 0b 19 07 bd 06 b7 c9 bc
       -0.1508487 0.26187298 -0.032982867 -0.024623405
000030 37 ab ba 3d 78 d3 8f 3e da 76 d6 3d 65 8d e6 3c
       0.09114688 0.28091025 0.10471888 0.028143594
000040 e2 0d df bd c9 cf 2c bd 3e 77 80 3e 80 67 93 3d
       -0.1089132 -0.042190347 0.25090975 0.071974754
000050 d4 97 25 bd ee 74 91 bd eb 00 e7 bc e9 5d f4 3d
       -0.040427998 -0.07102381 -0.02819868 0.119319744
000060 37 d8 4d bd 1e b1 0e be 44 dd 92 3e 5b 5b 33 bd
       -0.050255027 -0.13934752 0.28684437 -0.043788295
000070 7e ba e8 3d 1e 16 96 bd 5a 30 22 3e 17 7a d2 bc
       0.113636956 -0.07328437 0.15838757 -0.025692983
000080 6f 4a 5f bd cd bc d4 3d 45 f0 86 3d 10 cc 85 3e
       -0.054514345 0.103875734 0.065887965 0.2613225
000090 49 6f 9f bd b0 83 80 3e d3 af 80 bd 98 d8 04 bc
       -0.07784898 0.2510047 -0.06283536 -0.008108281
0000a0 3e f6 da 3c 5b 02 0d be 35 65 1f 3e a3 a5 ef bc
       0.026728746 -0.1377043 0.15565951 -0.029253786
0000b0 06 3a 92 3c f1 14 90 be 7b 5b d7 3d f1 9a ea 3b
       0.017849933 -0.28140977 0.105154954 0.0071595837
0000c0 71 cf e7 3c 06 85 02 3d 48 c1 0d be a8 59 44 bd
       0.028297158 0.031865142 -0.13843262 -0.047937065
0000d0 b9 59 3c 3e 88 18 cf 3c 56 03 92 3d f4 22 1c 3e
       0.18393601 0.025280252 0.071295425 0.15247709
0000e0 94 f9 f3 3c 7b 65 f4 3d bc b2 83 3d bc 5c b4 3e
       0.029782094 0.11933418 0.06430575 0.35227
0000f0 02 2f 36 3e db 0c c4 3d 3e 4a 10 3d 09 2d 2b bd
       0.1779137 0.095727645 0.035227053 -0.041790996
000100 eb 64 a3 3e 8e e3 5e 3c d7 ff 77 bd d1 22 93 bd
       0.31912932 0.013604058 -0.060546722 -0.07184375
000110 87 9c 73 3e e3 b3 3d 3d 18 ff 92 3d 34 bc 11 3e
       0.23790179 0.04631413 0.071775615 0.1423195
000120 71 1f 38 be 98 d1 3c 3c 90 94 d8 bd b7 03 02 3e
       -0.17980744 0.01152458 -0.10575211 0.1269673
000130 74 f1 f0 bd 4e db 95 3c f4 4c f4 3d a3 70 de bc
       -0.117648035 0.01829305 0.1192874 -0.027153319
000140 2e 55 86 bd 89 57 0b bd 40 2b 91 3e 3f 48 a0 bd
       -0.065592155 -0.034019027 0.2835331 -0.0782628
000150 68 4c 33 bc 51 14 11 3e 77 b5 87 3e a0 36 a9 bd
       -0.01094351 0.14167906 0.26505634 -0.08262372
000160 18 4a ee 3c 7c 0d f3 3d 0d 37 85 3d a0 da b9 3d
       0.029088065 0.11867806 0.06504641 0.090749025
000170 67 86 50 be 3a 21 fe 3d 96 21 17 3e 37 49 2e 3e
       -0.2036377 0.12408681 0.14758906 0.17020117
000180 34 ab 97 3d 8f 41 fd bb 85 96 7c 3d 42 f6 ad 3d
       0.07405701 -0.0077287625 0.061666984 0.084942356
000190 bc a1 32 3e 8c 55 24 3e 75 b7 48 3e b6 45 a2 3d
       0.1744451 0.16048259 0.19601233 0.079234526
0001a0 e9 45 d3 bc 82 fa 62 3e 49 84 96 bd 7a ef f8 3d
       -0.025790172 0.22165874 -0.0734945 0.121550515
0001b0 1a 65 f9 bd 3b 5d be bd 52 ff 06 3e 2e bf 15 3e
       -0.12177487 -0.09295126 0.13183334 0.1462371
0001c0 d6 dc 38 3e 53 06 1a 3d ba 1a 43 3e b8 c9 86 3d
       0.18052992 0.037603687 0.19053164 0.065814435
0001d0 fd 4f 35 be 8e 87 a5 bd 54 f4 22 bd f7 58 83 bc
       -0.17706294 -0.08082496 -0.03978379 -0.016033633
0001e0 fa c7 41 3e ac a3 9a bd 9c 30 7a 3e c4 6a 23 3d
       0.18923941 -0.07550749 0.24432606 0.03989674
0001f0 1b 0a 3c be 22 6d b0 3d ca fa 5a bc 01 8c 77 3e
       -0.1836323 0.086145654 -0.013365457 0.24174501
000200 5c c3 d8 3d 3e 9e 02 be 7b 66 30 be ea d6 7c 3d
       0.10584137 -0.12755677 -0.17226593 0.061728396
000210 0b 60 7a 3e b4 a6 0a be 8f cf 80 3e d0 b3 10 3e
       0.244507 -0.13540155 0.25158355 0.14131093
000220 da 00 ef 3c e3 a4 a8 3e 75 c4 09 be 5b 0e 1c 3e
       0.02917521 0.329383 -0.13453849 0.15239851
000230 be 97 fa 3d 9f f3 13 3e f2 62 01 bd 9b 2f 9f bd
       0.12235974 0.14448403 -0.031588502 -0.07772752
000240 c7 b3 da 3d f3 e3 15 3e d8 49 1e bd 6e df 0d 3e
       0.10678821 0.14637737 -0.03864464 0.13854763
000250 76 9b 09 be f0 70 8e 3d 12 83 9b 3c d5 28 af bd
       -0.1343821 0.06955135 0.018983398 -0.0855271
000260 fd 83 10 3d 8e f8 0e 3e cc 18 24 3e 5d 1a 4f bd
       0.035282124 0.13962004 0.16025084 -0.05056225
000270 e6 33 78 3d 9f aa 24 bc e6 a9 20 bc de e0 45 bb
       0.06059637 -0.010050445 -0.009806132 -0.0030193846
000280 79 33 d2 3d c2 eb 9d 3c 7a 36 ab bd 34 55 b2 bd
       0.10263724 0.019277457 -0.0836 -0.087076575
000290 d4 ea 10 3e a3 30 47 be e7 85 37 3d 30 85 4b 3e
       0.1415208 -0.19452147 0.044805434 0.19875026
0002a0 d9 a4 15 be 15 c1 4d 3e b7 4b 82 3d 24 ac ff 3b
       -0.14613666 0.20093186 0.06362098 0.007802503
0002b0 c5 8a 5a 3d f2 ad 90 3e 24 f3 33 bd 98 06 04 3e
       0.053354997 0.2825771 -0.04393305 0.1289314
0002c0 39 63 06 be 13 9d 1c be 9f 12 b3 3d 67 5b 7e 3d
       -0.13123788 -0.15294294 0.08743786 0.062098887
0002d0 9c 22 06 3e 54 71 18 3e 10 01 92 bc b6 da f8 bd
       0.1309914 0.14886981 -0.017822772 -0.12151091
0002e0 97 06 97 bc 39 28 68 3d 31 7a a1 3d fa af de bd
       -0.01843576 0.056678984 0.07884634 -0.108734086
0002f0 b5 02 6e 3e b9 3c 3b 3d 5b 85 02 be 2e f5 7d 3d
       0.2324322 0.045712207 -0.12746184 0.0620014
000300 87 41 8f bd ef 88 00 3e 7e fb 18 3e ab 11 fe 3c
       -0.0699492 0.12552236 0.14939687 0.031014284
000310 2d d4 84 3d ee f8 d5 3c 10 e2 04 be 21 8b 0a 3e
       0.06485782 0.026119675 -0.12976861 0.13529636
000320 56 af 43 bd 44 4c 31 be d4 37 dd bc 73 dd f5 bd
       -0.047774635 -0.1731425 -0.02700416 -0.12005129
000330 a2 67 f6 3d 15 ab fc 3d bd 34 9a 3b c5 a4 c4 bd
       0.12031485 0.12337319 0.004705994 -0.0960174
000340 7b c8 17 3e 90 fa c3 bc a4 2f 5d bd bb 70 f3 3d
       0.14822571 -0.023923188 -0.05400051 0.11886736
000350 e0 26 3d be b7 d1 41 bd c4 37 33 be 2e ec 23 be
       -0.18471861 -0.04731914 -0.17501742 -0.16008064
000360 78 35 84 3d 7f 91 0b be c1 86 d7 bc a8 e1 23 be
       0.06455511 -0.13629721 -0.026309373 -0.1600405
000370 62 f5 04 bd 52 ed 2c 3a bd 6c 0c 3e 91 d6 18 3d
       -0.032460578 0.0006596643 0.13713355 0.037314
000380 ee 75 6e be 59 6c 3b 3e 2c 01 26 bd fa b1 5b 3e
       -0.23287174 0.1830305 -0.04052846 0.21454611
000390 63 71 04 be b0 45 c9 3d e5 94 37 be 04 27 ad bd
       -0.12933879 0.09827745 -0.17927893 -0.08454707
0003a0 8e ea 74 bd 15 46 f8 bd 88 c8 15 3e f9 2b 3a bd
       -0.059794 -0.12122742 0.14627278 -0.04545209
0003b0 d6 7a 89 3d 18 1d 91 be 61 91 48 3e 84 dc 65 bd
       0.06712882 -0.2834251 0.19586708 -0.056118503
0003c0 b1 9b 42 be ed 70 35 3e 7b 4e 60 3d cb 53 2a 3d
       -0.19004704 0.17718859 0.054762345 0.041583817
0003d0 0b 03 17 3e e4 f3 ca bd 00 dc c7 3d 0c f6 a1 3c
       0.14747255 -0.099098 0.097587585 0.019770645
0003e0 e5 d7 15 bd ca 8c 2c 3e 87 e6 3b be df 4f 2a 3e
       -0.036582846 0.16850582 -0.18349658 0.16632031
0003f0 a5 2c 6b 3e 27 9a 7e 3d 60 23 a6 be 37 cd 3f bc
       0.2296625 0.06215873 -0.32448864 -0.011706642

stack.2.bias f4 [16]
000000 fa 37 ac 3d 3c e2 85 3c 14 a5 05 3e 3a 9f 23 3e
       0.08409114 0.016343229 0.13051254 0.15978709
000010 61 56 a3 bd 1e ef c4 3d 46 5d 90 3d 5a f0 ab bd
       -0.0797546 0.096159205 0.070490405 -0.08395453
000020 47 c1 28 be c4 13 4f 3e c7 a6 8e 3c ac 60 3b be
       -0.1647998 0.20222384 0.01741351 -0.18298596
000030 70 40 ab 3a 50 3e 9a 3c 4b 14 9a 3d 0f e7 8d 3e
       0.0013065469 0.018828541 0.07523402 0.27715346

stack.4.weight f4 [1, 16]
000000 91 5f cc 3e 43 ff 59 be 23 17 f2 3e 9f db bd 3e
       0.3991666 -0.21288781 0.47283277 0.3708162
000010 9a eb 5b 3e b3 05 27 3e c0 d1 ed bd 06 f1 87 bd
       0.21476594 0.16310768 -0.11612272 -0.066377684
000020 66 8b 09 3e 54 ea d0 3e b5 e5 38 be 44 26 48 3e
       0.13432083 0.40803778 -0.18056376 0.19545847
000030 db 56 b7 3d ef c7 3b be 55 ef 97 3e 61 67 8e 3e
       0.08952113 -0.18337987 0.29674783 0.27813247
