src/models/evaluator_model.pth (torch, 9560 bytes, 5 tensors)

stack.0.weight f4 [32, 35]
00000000: 722b 213e 0892 4a3e a772 8cbd c5fa 73bd
00000010: ae2b 253f 2938 22bf 49c0 753f 4d77 65bc
00000020: c7f6 313e 4d72 783d f5d9 a7bf 7772 133f
00000030: 1326 5a3d 9dd5 053f 2f47 cabb 6a66 3a3e
00000040: dc85 76be 9174 913e a993 ccbe 9bc2 85be
00000050: da87 8b3f a1ad b2bd 9b13 da3e 4ca2 fc3d
00000060: f695 97bf e9ab 643e 8602 86bf cfb9 963f
00000070: af48 623d 7ed4 823e 6e2e e2bd d2eb 53be
00000080: 29a0 84be edf1 383e e244 433f abd9 883e
00000090: 99f7 c2bd 0d8d 793d fc6a 5fbe 95b4 7b3e
000000a0: f0de 46be 9a15 043e 017a c8bd cd8b 07be
000000b0: 77ad 8a3d 0f6f 0a3d d234 3c3e 8e93 21be
000000c0: 7626 1ebe 123a 313e c22a b4bd e6e0 44be
000000d0: f532 2e3e da44 22bf ce48 b0be a6b7 0c3f
000000e0: b75a 41ba 5f4b 033c ae76 23bd 48aa 3cbf
000000f0: 8e4a 6d3e e720 883e cd6c a93c 435e 02be
00000100: 2c7c 1fbe 2d95 3d3e 3243 dbbb 8073 db3d
00000110: 82c6 2ebf dfdc 153f 7c20 893e 3cc7 1e3d
00000120: affa 003e 5108 02bc fa71 46be a3d0 2e3f
00000130: b45d 4abf f5b7 073e 43e8 883d bca4 f0bc
00000140: d430 9f3e 6acd 29bd b38c 8d3d 59ea febe
00000150: d475 a33e 993c b4bd 77c1 8dbd 238c c3bd
00000160: 768e b7be 52a4 6d3e d5be 8bbd f514 273e
00000170: 384c 2abd 0223 0a3d 3f43 1ebe eb71 5fbe
00000180: cac7 063f da60 12bf aa1b fdbd e3bd 9a3e
00000190: a571 b43c 9406 4e3e 0c99 59bf 834a e63e
000001a0: cc76 d3bd 908e 5abe 2a68 47bd 140e eb3d
000001b0: 0fb8 e43d b156 1d3d 208f 5f3b f34e 0bbf
000001c0: c420 cb3d 268b 69bd 2a4a 2fbe e044 d3be
000001d0: be6b 6e3d a595 2e3e 3ec3 53be 4149 0e3d
000001e0: c718 73bd 5d80 983d cb90 2f3d 3177 7f3e
000001f0: 0d6a b73d a858 06bf 72b8 423d ee95 8d3b
00000200: 0fae a3bd eb3a ac3e 8b42 cfbd c24f 113f
00000210: 4dd7 87bf 386f 823e 8429 ec3d a227 5dbd
00000220: a16e 27be fe3b fd3d 8a69 83bb 61a4 e4be
00000230: bb55 c1be e923 503c c825 13bd df86 89bd
00000240: d3c5 373f 2354 f9be 0c63 dd3d 89c2 09be
00000250: 932c b6bc 8698 c2bd 5ec5 4e3f 6366 2bbe
00000260: eb9e 0fbf 74b5 be3d c75f 68be 39f5 a73e
00000270: 4c53 01be a81b 8f3d 2c35 f4be 2175 d1bc
00000280: 6f67 dd3e 7a56 0abf af5f 6a3d 7fc4 4a3d
00000290: 43b4 cd3e b50e db3e 8053 6bbe c023 aabb
000002a0: 43f3 a6be e9dc 61bd 878b 3cbd 4711 fb3d
000002b0: 4f3f 1f3e 49d7 2e3f fb34 85be 7dc8 afbe
000002c0: 8158 8a3c f567 f9bd 8399 cbbd fbf5 213e
000002d0: 7687 513f f003 b5be 2ae5 253e 63fc 25be
000002e0: d4b2 f8bd 5aaa 233f bdc9 9cbe 928f 043f
000002f0: ec69 d8be 1699 c43c 30c3 a5bc e746 cc3d
00000300: 7f68 793e dee2 89be ef45 293f f5cc eabc
00000310: 0fa8 3d3e 7d0b c73d b47d 59be 56d5 47be
00000320: 5040 a13e 62cb b53f 8632 7abf c788 c73d
00000330: 7fe9 22be a3d2 a83e e985 423e 8f58 0dbf
00000340: 7921 1a3f 034b 293e 570f 383e 4e5b 67bd
00000350: dc6d 01bd 1734 8d3e cbb1 93bd a3aa e8bd
00000360: a1f3 eebe eef9 a63e 5e4e 253e 3dba e0bd
00000370: 7dd0 01be 593f 043e 0852 383d f72c 7fbe
00000380: b6af 303d fec5 7b3d 61f9 92bc 1eb6 4d3e
00000390: 94ec ab3e 6561 7dbe ebc7 18bf 784b 8c3c
000003a0: a887 693e b773 5ebd 87f9 763f a556 043e
000003b0: acc0 4cbe 7091 a5be 2970 953e 22de f83d
000003c0: 43e0 8039 6769 8f3e 0828 673f da36 6dbe
000003d0: 111e 4bbf 00b7 883e 6ab9 83be 7e12 ad3d
000003e0: 9dc2 11bf dca5 cb3e 06e5 07bf b1ce 7a3e
000003f0: 3cff 31be 3336 c6bd 06a5 103e a682 323e
0.1573923 0.19782269 -0.06857806 -0.059565324 0.64519775 -0.63366944 0.9599653 -0.014005494
0.17379294 0.06065588 -1.311339 0.57596534 0.053258967 0.52279073 -0.0061730365 0.1820313
-0.24074501 0.28409246 -0.39956406 -0.26125035 1.0900834 -0.08724523 0.42593083 0.12335643
-1.184264 0.22331204 -1.046952 1.1775454 0.055245098 0.25552744 -0.11044012 -0.20695427
-0.25903443 0.18061037 0.7627698 0.26728567 -0.09519882 0.060925532 -0.21818155 0.24580605
-0.19420981 0.12898865 -0.097888954 -0.13236924 0.06771367 0.03379732 0.18379524 -0.15778944
-0.15444359 0.17307308 -0.08797218 -0.19226417 0.17011626 -0.6338631 -0.34430546 0.54967725
-0.0007375883 0.008013575 -0.039908104 -0.7369733 0.23172972 0.26587602 0.020681763 -0.1273127
-0.15574712 0.18513937 -0.00669136 0.10715389 -0.6827165 0.5854015 0.26782596 0.038764223
0.12595628 -0.007936553 -0.19379416 0.68287104 -0.7904923 0.13253768 0.066849254 -0.029375426
0.3109194 -0.041455664 0.06911602 -0.49788168 0.31925833 -0.088006206 -0.06921666 -0.09548213
-0.35850877 0.23207214 -0.06823508 0.16316588 -0.041576594 0.033724792 -0.1545534 -0.218208
0.52648604 -0.57179034 -0.12358792 0.30222997 0.022026846 0.20119697 -0.84999156 0.44978723
-0.10325393 -0.21343446 -0.048683323 0.114772946 0.11167919 0.038412753 0.0034112409 -0.5441734
0.09918359 -0.057017468 -0.17118135 -0.41263485 0.05820822 0.17049272 -0.20679948 0.03473783
-0.0593498 0.07446358 0.042862695 0.24947812 0.089557745 -0.5247903 0.047539182 0.0043208515
-0.079921834 0.336387 -0.10120114 0.56762326 -1.061258 0.25475478 0.11531356 -0.053992875
-0.16350795 0.12364958 -0.004010384 -0.4465666 -0.3776072 0.012703874 -0.035924703 -0.06715178
0.7178623 -0.48697004 0.10809907 -0.13453116 -0.022238052 -0.09501748 0.8076991 -0.16738276
-0.56101865 0.09311953 -0.22692786 0.32804278 -0.12629431 0.06987697 -0.47696817 -0.025568547
0.43242976 -0.540382 0.057220157 0.0495038 0.4017659 0.42784658 -0.22981071 -0.00519225
-0.3260747 -0.055142317 -0.0460315 0.12259155 0.15551494 0.6829725 -0.26016983 -0.34332648
0.016887905 -0.12178031 -0.099413894 0.1581649 0.8184732 -0.35354567 0.162007 -0.16209559
-0.12143484 0.6393181 -0.30622664 0.5178157 -0.42268312 0.023998778 -0.020234674 0.09974461
0.24356268 -0.26930898 0.66122335 -0.028662184 0.1852114 0.09718988 -0.21239358 -0.19514975
0.3149438 1.4202693 -0.9773334 0.09742885 -0.15909384 0.32973203 0.18996395 -0.55213255
0.60207325 0.16532521 0.17974602 -0.05648356 -0.03159891 0.27578804 -0.07211646 -0.11360671
-0.4667025 0.32612556 0.16143176 -0.10973022 -0.12677188 0.1291479 0.045000106 -0.24919496
0.04313632 0.061468117 -0.017941179 0.20089003 0.33578932 -0.24744184 -0.5968005 0.01712583
0.22805655 -0.054309573 0.964745 0.12923677 -0.19995373 -0.32337523 0.29187134 0.121517435
0.0002458115 0.28010103 0.9029546 -0.23165455 -0.7934275 0.26702118 -0.25727397 0.08450793
-0.5693758 0.39774978 -0.5308384 0.24492909 -0.1738252 -0.096783064 0.14125451 0.17432651

stack.0.bias f4 [32]
00000000: 7f4f 943e 6bab c83d aa1e 0dbe 518e 8fbe
00000010: 381f 2b3d ca44 033e 61ca dabb 39ef aebe
00000020: bae9 e23d 9794 743d 9979 6fbe a504 06be
00000030: 7c73 f3bd 2132 cabe d515 fe3d 8b70 803e
00000040: 8dbe cfbe 137b e0be becd 74be 8b92 68be
00000050: 64a7 cbbc f452 9f3d 1de3 9b3e b02c eb3c
00000060: 367a cc3d b76e 51be f432 703e 0809 58be
00000070: 074b 2bbe b985 293f 2ea3 1f3e c909 babe
0.289669 0.097983204 -0.13781229 -0.28038266 0.04177782 0.1281921 -0.0066769575 -0.34166887
0.11079736 0.05971202 -0.2338623 -0.13087709 -0.11887261 -0.3949137 0.12406508 0.25085863
-0.40575066 -0.43843898 -0.2390661 -0.22712152 -0.024860092 0.07779494 0.3044671 0.028707832
0.099842474 -0.2045239 0.23456937 -0.21097195 -0.1672784 0.6621967 0.15589592 -0.3633559

stack.2.weight f4 [16, 32]
00000000: 5263 b4be b995 aebd 827f 083e 2aee c1bc
00000010: 9972 563e 68da 9dbe adcc 66be 6f5a 20be
00000020: 18ee d63e 3597 9f3e 357b ee3e a3b7 923e
00000030: 873c 47be be8f d0bd 604e 143d f7f8 c3bd
00000040: 2937 c7bd 08e4 7a3e 7b56 203d 90b9 abbd
00000050: e86b 363e a48d 213f 1c6f abbc 404e 2abc
00000060: 6995 7d3d 8c8e 2f3e 5f63 823e 9bfb 4c3e
00000070: d543 3f3c cac0 0dbd d0e3 6e3e d1d9 903e
00000080: d5a1 8cbe 9dde a2bd 3e88 a2bd c9cc 8a3d
00000090: f81b 453e 3fbc 5ebe 9c7c b13e 1562 3dbe
000000a0: ac4d 323f 38f6 783e 1ed2 bbbe 6e49 f63e
000000b0: 00dc cd3d d160 44be 981a ca3e 13a4 c9be
000000c0: 35fd a23e 158c 9e3e 5b4e 4c3f 6235 c53e
000000d0: 11d9 c63d 53ed 5d3e 41bc fabb 1851 a9bd
000000e0: 9ee7 93be e9e9 71be 4f1d aa3e f530 b03d
000000f0: 9e16 c7bc 856c 13bf d33d da3e 5547 383d
00000100: fa69 73be 3724 51be 231b 193e a667 88bc
00000110: 2e4b 623f 460a 9ebe e99e 363e 7e35 3cbe
00000120: ea19 aabd 4184 1f3e e1e2 2a3e 1509 8f3e
00000130: c7f1 1a3e e619 e9be ece3 d23c 3a3b 8e3d
00000140: c243 41be 4af4 073f d39b 5a3d 27d2 a33e
00000150: a9f6 823c a431 5e3e a433 bdbb e148 dd3d
00000160: 304e ec3d 66d6 c53e 53d4 90be 932b c23d
00000170: 35e4 edbd 5e58 09be 4b8b 173f 4aff c53e
00000180: dd5c 95be e261 8bbc 02a3 0e3e 88fe 2abe
00000190: 830f a1bd 3192 c5be 27b1 b43d b0d7 54be
000001a0: 969e 493e 9414 8b3e d7ca f6bd f378 cf3e
000001b0: 89b7 27be 8655 423d 5d18 debd e2c6 08be
000001c0: 450d 2e3e 003f 333e 1e01 b13e 4e68 623e
000001d0: 9a33 6f3e ceb1 cc3e c5fa f2bc a7ce 84bd
000001e0: 4e10 97be 0171 9c3e c9f6 f2bd 3cfd 083e
000001f0: a9e6 353e 1e3a 2cbe 2291 693e b720 8a3d
00000200: 6c62 54be dcda b83d a805 483d 4bb1 96bd
00000210: 733d a83d a704 9ebe 832f 86be 2416 233d
00000220: 3b50 843e 7393 823e 9a78 063f 015e 90bd
00000230: 375d 44be 5e90 1a3d 59ad dbbe 896c 9a3d
00000240: 553f 88be dcf3 983c 56d3 a6bc 4d0a a3bd
00000250: d636 15bd d196 133e fd5e dfbe a7eb ff3d
00000260: c6a5 cf3d c427 893e 7550 363e 2067 f1bc
00000270: 13a4 cebd f764 2b3e 3ce3 e7bc 0834 a93e
00000280: 6893 28be 139a eabe eee9 21bd 2b3f 443e
00000290: 0062 943e 44df b8bd 5e77 813e 6fd8 d0be
000002a0: e856 ddbd ca8d b53d 8139 91be c348 293e
000002b0: 67bf 223e db19 963d b603 0cbf 947e 82be
000002c0: 8cc5 df3e e92d c43d 3bd6 9c3e f79f 963e
000002d0: 94f7 133e 32ac ce3e 11b1 ed3d 5e35 fd3d
000002e0: 54c4 7bbe fcc1 44be 59c6 8e3e 63b1 21be
000002f0: d4da d1be 2e6a e0be 1fa3 013f dc96 8d3c
00000300: e701 423d 9c65 5a3c f8ae 2dbe 8019 4dbe
00000310: 124b ff3e 53e3 ee39 41c9 9d3d 29f9 903b
00000320: 3dd5 d03d 8d88 a03e 8653 cf3d 6eda 623e
00000330: 8408 4dbe c9e7 2abe 3f23 3f3c 97b1 c8bd
00000340: 599c fabd 54e2 33be 0c5f 6f3c 549d 643e
00000350: a403 74be fc09 f33e 7da4 cabd 1ad3 ff3d
00000360: 25b5 dcbd a4e8 873d aa65 973e d3f2 efbd
00000370: e863 04be d1d3 323e 4cb5 783e b906 03be
00000380: 7453 1a3f 8477 483e 4172 a33d d646 38bd
00000390: 06f7 bf3d e4e5 843f b50a eb3d 7ae2 b3bd
000003a0: be5e 1cbe 5f3e b9be dc64 c1be a8b0 9fbe
000003b0: e83a 7a3e 3916 06be bb79 ae3e c410 d93e
000003c0: da2e 95bc 8570 16be dcd9 82be 7aca 96be
000003d0: 56f5 103e 5fa3 4ebe 50e8 183f d3d1 fa3c
000003e0: 3350 543d 5fd7 4f3e ab62 a4be ccf9 b7bc
000003f0: a946 153e c310 f5bd b81d bebd 2777 3cbe
-0.35232025 -0.08524651 0.1332989 -0.023673136 0.20942153 -0.30830693 -0.22539015 -0.15659498
0.41978526 0.3117005 0.46578375 0.2865573 -0.19456683 -0.10183667 0.036207557 -0.09568971
-0.09727318 0.2450105 0.039144974 -0.083850026 0.178146 0.6310675 -0.020927005 -0.010394633
0.061910067 0.17144221 0.2546644 0.20017855 0.011673887 -0.034607686 0.23329091 0.2829118
-0.27467218 -0.07952616 -0.079361424 0.06777341 0.1924895 -0.21751498 0.34665382 -0.18494447
0.6964977 0.24312675 -0.36683744 0.48102897 0.10051727 -0.19177558 0.39473414 -0.3938299
0.31833807 0.3096625 0.7980706 0.3851729 0.09709371 0.21672563 -0.007651836 -0.082674205
-0.28887647 -0.23624386 0.33225486 0.08603088 -0.024302777 -0.5758746 0.42625293 0.044989903
-0.23770896 -0.20423971 0.14951758 -0.016650986 0.88395965 -0.30867213 0.17834057 -0.1837978
-0.08305724 0.15577795 0.1668811 0.27936617 0.15131293 -0.4552757 0.025743447 0.0694489
-0.18873504 0.5310713 0.05337126 0.3199627 0.015986757 0.21698624 -0.0057739783 0.10804916
0.115383506 0.38640136 -0.2828699 0.094809674 -0.11615793 -0.13412616 0.5919692 0.38671333
-0.29172412 -0.017014448 0.1392937 -0.16698658 -0.07864287 -0.38588098 0.08822852 -0.20785403
0.19689402 0.27164137 -0.120504074 0.40521964 -0.16378607 0.047444843 -0.10844491 -0.13357118
0.1699725 0.17504501 0.34571165 0.22110102 0.23359528 0.39979404 -0.029660592 -0.06484728
-0.29504627 0.30554965 -0.11863477 0.13377851 0.17763771 -0.16819045 0.2280927 0.06744521
-0.2074067 0.09026119 0.04883352 -0.07358035 0.082148455 -0.30862924 -0.26208124 0.039816037
0.2584246 0.2550312 0.52527773 -0.0704918 -0.19176184 0.037735336 -0.4290569 0.07540233
-0.26610819 0.018670969 -0.020364445 -0.07960949 -0.03642925 0.14413 -0.43627158 0.12496119
0.10139041 0.2678815 0.1780413 -0.02946812 -0.100898884 0.16737734 -0.028306596 0.3304751
-0.16462481 -0.45820674 -0.039529733 0.19164722 0.28981018 -0.090269595 0.25286382 -0.40790126
-0.10807592 0.08864935 -0.28364184 0.16531663 0.15893327 0.0732915 -0.5469316 -0.25487196
0.43705404 0.09579069 0.30632195 0.29418918 0.14449912 0.4036575 0.11606038 0.123636946
-0.24586612 -0.19214624 0.27885702 -0.15790324 -0.40987265 -0.4383101 0.5063953 0.01728385
0.047365095 0.01332989 -0.16961277 -0.20029259 0.49861962 0.00045564267 0.07704402 0.0044242335
0.10196922 0.3135418 0.10123353 0.22153637 -0.2002278 -0.16689982 0.011666118 -0.097994976
-0.12236852 -0.17566806 0.014610063 0.22325641 -0.23829514 0.47468555 -0.09894655 0.12491436
-0.10776738 0.066361696 0.2956975 -0.11716237 -0.12928736 0.17463614 0.2428791 -0.12795533
0.6028359 0.19576842 0.079807766 -0.04498943 0.09373288 1.0382657 0.114766516 -0.08783431
-0.15270516 -0.36180398 -0.37772262 -0.31189466 0.24436533 -0.13094415 0.34077248 0.42395604
-0.018210817 -0.1469136 -0.2555684 -0.29451352 0.14156088 -0.20179509 0.5972948 0.03061763
0.051834296 0.20297001 -0.32106528 -0.02245798 0.14577736 -0.11966088 -0.09283012 -0.18404828

stack.2.bias f4 [16]
00000000: 1083 a33d 8f60 d13d 7c3e c23c ba55 c33d
00000010: 5c46 49b9 97fd 30be caa7 973e 721b e83d
00000020: 4e8d 303e b625 583e f4bd b1bc 5221 623d
00000030: 6434 a8bc f678 8abd bf44 973e 8d4a c43e
0.079839826 0.10223495 0.023711435 0.095378354 -0.00019195065 -0.17284237 0.296202 0.1133336
0.17241403 0.21108136 -0.021697022 0.055207558 -0.020532794 -0.06761353 0.29544637 0.38338128

stack.4.weight f4 [1, 16]
00000000: fc7c bb3e bf17 943f 6dbf 233f 105c 9b3e
00000010: 326a a33e 3291 523f 2b7d 113f 3402 afbe
00000020: e7db 753f fb13 3f3e 3b90 5fbf 46b4 9cbe
00000030: 4c51 9c3e dd6c 003f 229f 5d3f c460 0ebf
0.36618793 1.1569747 0.6396397 0.30343676 0.31916958 0.822528 0.56831616 -0.34181368
0.9603867 0.18659966 -0.87329453 -0.30606288 0.30530775 0.5016611 0.8657094 -0.556164
